src/engine/mcts/neural_nets/model.pt (torch, 372623 bytes, 14 tensors)

weight f4 [64, 3, 3, 3]
00000000: 074d 043e b430 513c edaf 143e 13e1 3ebd
00000010: 7791 c4bc fd1a fd3d 9294 0ebe 1b78 de3d
00000020: 7e40 923c f282 edbd f675 16be 5312 1c3e
00000030: 3e1a 3e3e d9ef b03d 7a0b 2c3e 2063 313e
00000040: dccc 333e 9445 2bbe 76ef 69bd b5bb 233e
00000050: 7f52 b73c a3fe fa3d 8c2b 70bd bea6 19be
00000060: f426 26be 98fd f93c 65fb f23d 6868 1bbe
00000070: f4fc febd 7023 9c3d 8814 9fbd bcff 34be
00000080: 5997 d4bb abb4 ae3d 3b36 bb3b 8206 d3bd
00000090: 35a3 023e 1cb5 38bd 59f6 98bd b268 33bc
000000a0: 058a 0bbe c808 ccbd cdc1 9ebc 59bd 733d
000000b0: 83eb 203e 018d ad3d f52d 11be 5828 17be
000000c0: 294f b53d f3b3 023d 124a cc3c 6b97 293d
000000d0: cd0c 5e3d 6baf dabd b983 203e 6d35 193e
000000e0: 36cb 9bbd 9f14 37bd 443a 73bc 58ac 2cbd
000000f0: 8dcb 143d 2ea8 413d ed3d a5bd 32c7 58bd
00000100: b8d6 55bc 4a8b ac3d 8212 0f3e 70d6 ec3d
00000110: ddae 333e 64eb 383e 9054 b73c bafd 1bbe
00000120: c90c 8bbd 6e4f cdbd 0b4b 843d 7507 6c3c
00000130: 328d 2d3d 9707 c6bc 3bc4 ccbd fd3b 8abd
00000140: 2b5b b7bd 1410 21be 090a 02be bf69 07be
00000150: 1dcc 283e 4cfd 99bd 5240 29be 3ff5 133e
00000160: 1e96 3e3d f615 19be 3b20 d9bd 84bc a63d
00000170: 62ca 80bd a248 a23c 230a 783b 3f85 2b3d
00000180: b07d 30be d053 a8bd 8e48 fa3d 2b5a 97bd
00000190: f662 163e d747 343d c327 ef3c fe2c 22bd
000001a0: 62ca 443d c6a5 08be a554 333e cc10 0b3e
000001b0: 6138 14be 1fce 90bb e8ca 113e 553e d33c
000001c0: b7c8 113d 1719 3fbe 3126 c1bd 9941 8b3d
000001d0: 6ac5 543d 8cea a4bd 3ccf 4abd e299 00bd
000001e0: ecca 1ebd 3ef0 1fbe 3211 fd3d be48 edbd
000001f0: 5a52 123e 05ad d93d ecb0 29be 7a11 84bd
00000200: b970 e23d ccc9 98bd 9321 f5bd 5121 053e
00000210: 5e33 29be 26f1 34be 26fb f33d 144a dd3d
00000220: f863 b33d 4777 0c3e 6f2c 13bc c844 1b3e
00000230: 503d 1fbe 4027 03be 7cd7 f13c ef33 44bb
00000240: 5dbf ef3c d0e0 e93d f1d3 d93d e409 3cbe
00000250: 37a6 c6bc 8742 463d a8e2 7a3d 58b7 dabd
00000260: 0e03 0bbd c723 a0bd d1bb c63d 6e21 a53d
00000270: a2e6 253e 7621 7a3d d29c cb3c 46eb 19be
00000280: 2294 bb3d cebf 2d3e ffdf 093e 4314 0ebe
00000290: 2d30 e7bb ef0d 34be 29ad 0abe 1043 3e3e
000002a0: 20e8 0e3e c678 e83d 92a4 4c3d 45a4 0abd
000002b0: be66 363e 9830 003e 1a7e f33d 0316 fc3d
000002c0: e567 32bd a308 f1bd 6322 2b3e 4610 94bd
000002d0: 52a5 16be 08d8 0c3e 91f4 0c3e b002 eb3c
000002e0: ccc0 123e 51bf cbbd 2da1 9bbd ac99 3abd
000002f0: 12ea 333d 6fa9 e73d 0a94 cbbd ee36 d4bb
00000300: 4141 3b3e 2b11 4ebc 063e f23d 7a3c 963d
00000310: 2d37 f0bd 6c50 983d f53d 323e 5195 38be
00000320: 4580 e5bc 0ce9 acbd abe6 ac3d 51cf 8dbd
00000330: 44ad dabd e0ba 3ebe 3d67 11bd e73f edbc
00000340: 6075 d5bd 090d 39be e889 b5bd 60f3 68bd
00000350: a215 d2bd 9f16 743b 04fb a1bd 8030 dc3d
00000360: ee62 c8bd 48eb 26be 6fba 15be 9947 f23d
00000370: 6518 013e 0c5e 373e 2f2a f5bd bdd2 9e3b
00000380: 8cfd a03d 0da1 9e3d c621 0c3e 5545 9a3d
00000390: 0496 43be 515f 833d 0d18 07bb ff04 813d
000003a0: 312a 683d 0bf2 31be a4dc a2bd 14b4 c0bb
000003b0: 5e59 013e 6997 533d 7d2a 49bc de88 9d3d
000003c0: 7482 edbd de79 893d 9d24 1d3e e1db 1c3e
000003d0: 91c8 21be 5a66 09be b170 083e 9356 82bd
000003e0: 7bea ae3d d4b4 32bd 9223 83bd 39ba 533d
000003f0: 0817 2d3e f3e7 f33d c66a a63c a875 94bd
0.12920009 0.012767959 0.14520235 -0.046601366 -0.023995144 0.12358663 -0.13923863 0.10862752
0.017853018 -0.115972415 -0.14693436 0.15241365 0.18564698 0.08639497 0.16801253 0.1732297
0.17558616 -0.1672576 -0.057113133 0.15989573 0.022378204 0.12255599 -0.05863528 -0.15005013
-0.16225797 0.03051643 0.11864356 -0.15176547 -0.12450591 0.07623947 -0.07767588 -0.1767568
-0.0064877686 0.085305534 0.005713252 -0.10303976 0.12757571 -0.045094594 -0.07468862 -0.010950254
-0.13626869 -0.099626124 -0.01937952 0.059506748 0.1571484 0.0847416 -0.14177687 -0.14761484
0.08852989 0.031909894 0.024937663 0.04140417 0.054211427 -0.106779896 0.15675248 0.14961787
-0.07607119 -0.0446974 -0.014845435 -0.042156547 0.036326934 0.04727953 -0.08068452 -0.052924342
-0.013051681 0.08425005 0.13971904 0.11564338 0.17547174 0.18058544 0.02237919 -0.15233508
-0.06789548 -0.10024916 0.06459626 0.014406075 0.042370982 -0.024173541 -0.099983655 -0.06749723
-0.08952936 -0.1572879 -0.1269914 -0.13223933 0.16484113 -0.07519016 -0.16528443 0.14449023
0.04652988 -0.14949784 -0.106018506 0.08141425 -0.062886015 0.019810025 0.0037847839 0.04187512
-0.17235446 -0.08219111 0.1222087 -0.07390245 0.14686188 0.044013824 0.029193765 -0.03959369
0.04804457 -0.13344488 0.17512758 0.13580626 -0.14474632 -0.004419103 0.14237559 0.025786558
0.035591807 -0.18661915 -0.094311126 0.06799621 0.05194608 -0.08052549 -0.04951404 -0.031396754
-0.03876774 -0.15618989 0.12356795 -0.1158614 0.14289227 0.10628704 -0.16571397 -0.06448646
0.110566564 -0.07460365 -0.119692944 0.1300099 -0.16523501 -0.17670116 0.11913137 0.10805145
0.08759302 0.13717376 -0.008982762 0.15162957 -0.15550733 -0.12807941 0.029521696 -0.0029938181
0.029266054 0.11419833 0.10636128 -0.18363148 -0.02424918 0.04840329 0.061251312 -0.10679501
-0.03393846 -0.07819324 0.09703792 0.08063017 0.1620126 0.061067067 0.024855051 -0.15031156
0.091591135 0.16967699 0.13464354 -0.13874917 -0.0070553035 -0.1758344 -0.13542618 0.1858027
0.13955736 0.11351161 0.049961634 -0.033848066 0.1781263 0.12518537 0.11889286 0.12308886
-0.043556113 -0.117692254 0.16712336 -0.072296664 -0.14711502 0.13754284 0.1376517 0.028687805
0.14331359 -0.099486 -0.07599101 -0.04555671 0.0439244 0.11311614 -0.099403456 -0.0064762747
0.18286611 -0.012577335 0.11828236 0.07335754 -0.11729274 0.07437214 0.17406447 -0.1802571
-0.028015265 -0.08442888 0.08442434 -0.06924308 -0.10677579 -0.18625975 -0.035498846 -0.028961135
-0.10422778 -0.18071379 -0.08864194 -0.056872725 -0.102580324 0.0037244929 -0.079092056 0.10751438
-0.09784494 -0.1630069 -0.146219 0.118300624 0.12606962 0.1790697 -0.119709365 0.0048468993
0.0786086 0.07745562 0.13684759 0.07532755 -0.19100195 0.064146645 -0.00206137 0.06299781
0.05668086 -0.17377488 -0.0795224 -0.005880842 0.12631747 0.051658068 -0.012278196 0.07692121
-0.115971476 0.067126974 0.15345998 0.15318252 -0.15799166 -0.1341795 0.13324238 -0.06364169
0.08540817 -0.043629482 -0.06403269 0.051691268 0.16903317 0.11909475 0.020314585 -0.07249004

bias f4 [64]
00000000: 7edc 033e a688 09bc 69d4 39bd ae1f bdbc
00000010: 4060 ccbd 6748 9c3d a7d8 0e3e 3580 da3d
00000020: 7776 633d 1c5f e73d 5413 dabd f740 6a3d
00000030: 8415 f63d 84ff 18be 9658 1f3e cfc6 2abe
00000040: f876 c6bd db0a 2f3e 4997 4bbd 6150 62bd
00000050: 7c7c a0bc ba24 413e edf4 e8bd 01eb 44be
00000060: 5dab 30be 2fa1 313e ad98 18bd 466a 973d
00000070: fd6d 013d 88e8 333d c2c5 e03c 0cd8 8dbd
00000080: c9a5 233d e972 c0bd c3df d5bd 006b 323d
00000090: d91a 863d 4099 d3bd b40c 863d b620 11be
000000a0: 79d8 353e 6f74 273e 6bec 9ebd 6d9f aebd
000000b0: bd41 24be 7245 0ebd a0ab bbbc 0ca1 ee3d
000000c0: b06f 603c 65fe 28be fef5 2dbe 5c74 963d
000000d0: 0f16 a8bd 46c9 f63c f957 0fbd eeae 3cbd
000000e0: eefa 8b3c 5664 ff3d b15f 2bbe d3b9 3b3e
000000f0: c264 66bc 402b edbd d129 9e3d 4cd5 c33d
0.1287708 -0.008394396 -0.045368586 -0.023086395 -0.09979296 0.07630997 0.13949834 0.10668985
0.0555329 0.112974375 -0.10648218 0.05719086 0.120158225 -0.14941221 0.15561137 -0.16677402
-0.0969066 0.17093985 -0.049704824 -0.055252437 -0.019590609 0.18861666 -0.11374841 -0.19230272
-0.1725287 0.17346643 -0.037254978 0.07393317 0.031599034 0.04392293 0.027438048 -0.06925973
0.039953027 -0.093969174 -0.1044307 0.043559074 0.065480895 -0.103319645 0.06545392 -0.14172634
0.17758359 0.1635301 -0.07759937 -0.08526502 -0.16040702 -0.034734197 -0.022908986 0.11651811
0.013698503 -0.16503294 -0.1698837 0.073464125 -0.08207332 0.030125272 -0.034996007 -0.046065263
0.017087426 0.124703094 -0.16735722 0.18332605 -0.0140621085 -0.11580515 0.077228196 0.095621675

weight f4 [64, 64, 3, 3]
00000000: 16ee 6f3b 00ef 3d3c 40f6 54bb 530d 143d
00000010: b0e3 23bc 1080 213d 4ed2 e03c 4061 18bc
00000020: 34d8 013d 66d3 1e3c b8df aebc d6f7 7fbc
00000030: f679 463c 207b a2bc 66e4 993c 40a4 a13c
00000040: 783f 943c 10a3 2bbc 1a95 04bd f080 073c
00000050: 8b42 17bd 6ed3 803c 988e 20bd b689 d53c
00000060: 001e 8f3a 90c7 0e3d 00a2 223c 26b3 c83c
00000070: 80e2 d5bb dbd2 593c 88dd 9e3c ce3f f3bc
00000080: c237 093d 56d5 243a 8837 1c3d e6d5 023d
00000090: 57f0 18bd c0b8 cf3b 3bba fabc 5061 04bc
000000a0: 8045 7dbc 432e 20bd abbe 79bc abe7 443c
000000b0: 4022 debc 80d5 02bd 46c9 5abc bee6 9b3c
000000c0: c00d a1bc 63b4 923c e73c 00bd 4036 89bc
000000d0: 2029 333c 969c 1ebd db5c 3e3c 23a3 df3c
000000e0: 8e1e eebc 5b8d 17bc 7b7a 5ebc 3843 cabc
000000f0: 4eb5 f73c 6038 3fbc 90d0 8f3c 7a38 213d
00000100: 940f 0dbd d841 1b3d 5615 4438 d0a4 3e3c
00000110: f26e 0c3d b02b 2cbc 20aa 093c c3e6 8d3c
00000120: 00a4 45b9 b6f3 97bc eb81 ffbc 163c a03b
00000130: 762e 913b f65f 09bc a350 873c d705 20bd
00000140: fe6a 18bd 9cc7 013d 0315 f9bc de93 9d3c
00000150: 1efb a6bc cfcb 1dbd 7669 11bd 1f3c 0dbd
00000160: bf6d 18bd 6048 423c 0e1c 053d 3c56 15bd
00000170: 2b03 19bd 1a57 13bd 60e2 bebb 40d1 9bbb
00000180: de2b c8bc fb22 943c 1e4b f93c 137f dcbc
00000190: 168c f63c 3e42 21bd ab40 a1bc 0098 553c
000001a0: c02c e13b ae52 e5bc 2eb8 ee3c 166c 083b
000001b0: 7645 1d3c 98a4 04bd ebee 133b 8665 853c
000001c0: fbfc 973c 7643 57bc 4485 1f3d d063 57bc
000001d0: 4b05 a53b 1bdd 03bd b61d 833b 9a6d 0ebd
000001e0: d65f 753b ee6a 0c3d 4b26 eabb 560c a4ba
000001f0: 0e5d f23c 8ff6 1abd 46b8 7c3c f6ee 393c
00000200: 96e8 0f3b b3b1 033d 13d5 b4bc e30e e1bc
00000210: ab7a a2b8 3bb3 2a3c e0a3 41bc 00bd 353c
00000220: 3b29 79bc e38a ee3c 23f5 9d3c 1623 05bd
00000230: 8651 2abc 52a8 083d f6b5 333c e021 f7bc
00000240: be0e b33c d620 163b 0b12 303c 8636 c6bc
00000250: 30ca b33c ab29 11bd 6b03 2c3b 9037 dd3c
00000260: 0bf3 cc3b 8618 af3c d049 4bbc c3e9 0d3d
00000270: e671 163d 94e4 0abd ac5f 21bd c012 c23b
00000280: d09d b33c 466c 5ebc 43bf f93c 3bc9 4cbc
00000290: 0ade 27bd cbd4 c53b c077 0fbb 6ebc d0bc
000002a0: 2b78 c8bc 20b1 d13b d63f 213d cee3 be3c
000002b0: 76f9 b33c 963e f2bc 607e 773c 767d 5fbc
000002c0: 36a9 0c3c 1b85 f3bc 00c2 08bd e0ac 0b3d
000002d0: d835 27bd 76dc 84bc 6b24 67bb 76ee e8bb
000002e0: 0060 eb3c 56bf ad3c 7b6b 3f3c bbf7 f0bc
000002f0: a039 d93b 0c19 053d b0f5 45bc 1e09 aabc
00000300: 34e2 0f3d 8eb7 033d 700a d73c 4c79 1fbd
00000310: 3fa5 0e3d 4000 65bb 0053 be3b 68c0 95bc
00000320: 0e6b 133d 4873 a63c 6bb9 46bb e046 233c
00000330: d638 d73a 92cf 293d 6b0e 23bc 9027 e8bc
00000340: 36a6 96bc 4bd4 b2bb 4b8b 70bc 8b8f b9bb
00000350: c692 933c e6dc 3ebc 600d 803b 36e6 373c
00000360: 2b21 83ba 2096 9bbc eb09 30bc 6601 183c
00000370: 9b5d 073d ca99 043d 0b34 823b 10f2 24bd
00000380: 0742 0fbd 3007 e6bc 8cec 243d 6b88 fb3c
00000390: 3330 05bd 6be2 6d3b 4b5b 8e3b 802b a7ba
000003a0: 0681 323c 76af e73c b761 203d c64e 04bd
000003b0: 22dc 0a3d 281f d13c d6b7 803b 8652 97bc
000003c0: a0b3 25bd 9bc2 413c 8617 10bd 8093 2f3b
000003d0: 70cb 013d 56da 5bbc e371 fe3c 9bfe 4ebc
000003e0: e77a 073d 966a 34bc 26f7 0cbd 9648 72bc
000003f0: 9b94 153c 9c45 05bd d708 113d 8b5f b83b
0.0036610416 0.011592627 -0.003249541 0.03614552 -0.010003015 0.03942877 0.027444031 -0.00930053
0.031700328 0.009693956 -0.021346912 -0.015623054 0.012114039 -0.019834101 0.018785667 0.01973164
0.01809667 -0.010475889 -0.032368757 0.008270487 -0.036928695 0.015725818 -0.039198488 0.026066642
0.0010918975 0.034858286 0.009926319 0.024499487 -0.006527245 0.013294901 0.019392744 -0.02969351
0.03350044 0.0006287893 0.038138896 0.03194227 -0.03733858 0.0063391626 -0.03060638 -0.008079842
-0.015458465 -0.03910662 -0.015243213 0.012018125 -0.027115941 -0.03194189 -0.013353651 0.019030925
-0.019659877 0.01790828 -0.03130808 -0.016749501 0.010935098 -0.03872355 0.011618818 0.02729947
-0.029067304 -0.00925001 -0.013579006 -0.024690256 0.03023782 -0.011671156 0.017555505 0.0393605
-0.034438685 0.03790459 4.6749912e-05 0.011635974 0.034285493 -0.010508463 0.008402377 0.01732195
-0.00018848479 -0.018548828 -0.03118988 0.0048899753 0.0044305874 -0.008384695 0.016517943 -0.03906807
-0.03721141 0.031684503 -0.030405527 0.019235548 -0.020383414 -0.038524445 -0.035500966 -0.034481164
-0.037214037 0.011858076 0.03249746 -0.036459193 -0.037356537 -0.03597174 -0.005825326 -0.004755169
-0.02443498 0.018083086 0.030431326 -0.026916062 0.030096095 -0.039369814 -0.019684156 0.013036728
0.0068717897 -0.027993526 0.029140558 0.0020816377 0.00959908 -0.03238353 0.0022572826 0.016283762
0.018553248 -0.013138643 0.03894545 -0.013146356 0.0050360314 -0.032193284 0.0040013446 -0.034772493
0.0037441156 0.034281664 -0.007145678 -0.0012515883 0.029585388 -0.037832793 0.015424794 0.011348477
0.00219587 0.03215189 -0.022074258 -0.027472919 -7.747611e-05 0.010418708 -0.011818856 0.011092424
-0.015207584 0.02911896 0.01928193 -0.032504164 -0.010395413 0.033363648 0.010968676 -0.03016752
0.021857616 0.0022907755 0.010746489 -0.02419592 0.021946996 -0.03544013 0.0026247154 0.027004033
0.006254559 0.021373998 -0.012407735 0.03464676 0.036729716 -0.033909395 -0.03939788 0.0059226453
0.021925837 -0.013575619 0.030486709 -0.012499149 -0.040983237 0.00603733 -0.0021891445 -0.025480475
-0.024471363 0.006399289 0.03936752 0.023301985 0.021969538 -0.029570859 0.015105814 -0.013640752
0.008585265 -0.029726556 -0.033388138 0.034100413 -0.040822834 -0.016218405 -0.003526951 -0.007108505
0.0287323 0.0212094 0.01168334 -0.029415002 0.006629184 0.03249459 -0.012082502 -0.0207563
0.035127833 0.032157473 0.026250094 -0.038934037 0.03482556 -0.0034942776 0.005808234 -0.018280223
0.035990767 0.020318642 -0.003032292 0.009965628 0.0016420137 0.04145772 -0.009952168 -0.028339177
-0.018389802 -0.005457436 -0.0146816475 -0.0056628636 0.018014323 -0.011649346 0.0039078444 0.01122432
-0.0010004392 -0.018992484 -0.010744552 0.009277677 0.033048254 0.032373227 0.003973489 -0.04026991
-0.034975078 -0.0280796 0.04026465 0.030704698 -0.03251667 0.0036298286 0.004344379 -0.0012754053
0.010895019 0.028281908 0.039155688 -0.032301687 0.03390134 0.025527552 0.003928165 -0.018471967
-0.040454507 0.011826183 -0.035178684 0.0026790798 0.031688154 -0.013418755 0.031060165 -0.012633945
0.033076193 -0.01101174 -0.034415387 -0.014787814 0.009129669 -0.032537088 0.03540882 0.005626624

bias f4 [64]
00000000: 7e31 13bd b668 ae3c e0c9 d63c 061e 03bd
00000010: 6bdb e23b 368f 043d 53a7 f5bc b376 1dbd
00000020: d6fc 363c 86ec 27bd 80f0 293b 1860 93bc
00000030: d3c0 073d 5b3d d5bc 5b99 883c b6b5 11bd
00000040: 3a0e 22bd 40cf df3b abdb 103a f0d8 25bd
00000050: 5063 133c 8ee8 183d ab11 803a 3363 0bbd
00000060: 760a dfbc b344 2abd 6b13 71bc 2a69 093d
00000070: 0087 02ba b611 aabb 4059 7f3c fb2d 2dbc
00000080: dc02 13bd ae0f c23c d0ea f83c 4693 13bc
00000090: 033c f23c 73d2 f1bc fb6e f4bc 3b5d d5bc
000000a0: 7885 e13c e0a1 eabc b847 a53c 73c6 fa3c
000000b0: a061 f8bb e8ba 0fbd 004a 3bbb ebb4 a43b
000000c0: 40e6 d6bc d3a1 b6bc 76f5 d8bb 008a b33a
000000d0: da02 25bd a0a8 38bc e659 b4bc d302 9c3c
000000e0: 1b5d 6dbc 96d6 763c 6615 82bc abd2 033d
000000f0: c69e 8a3c 331f fbbc c24f 1d3d 3e35 953c
-0.03593587 0.021290164 0.026219308 -0.032011054 0.0069231293 0.03236314 -0.029987013 -0.03844328
0.011168679 -0.04099705 0.0025930703 -0.017990157 0.033142876 -0.026030233 0.016674688 -0.035573684
-0.03956435 0.006830126 0.0005525897 -0.04049009 0.008995846 0.037331156 0.000977089 -0.03403015
-0.027226668 -0.041569423 -0.014714102 0.033547558 -0.0004979223 -0.0051900996 0.015585244 -0.010570045
-0.0358914 0.023689117 0.030385405 -0.009007281 0.029569631 -0.029519295 -0.029838076 -0.026045432
0.027529463 -0.028641641 0.0201758 0.030612206 -0.007579997 -0.035090357 -0.0028578043 0.00502645
-0.026232839 -0.02229396 -0.006621058 0.0013697743 -0.040285923 -0.011270672 -0.022015523 0.019044315
-0.01448753 0.01506581 -0.015879344 0.03218333 0.016921412 -0.030654525 0.03840614 0.018213864

weight f4 [64, 64, 3, 3]
00000000: aea0 f2bc db73 693c 08a2 a13c 582d 0a3d
00000010: cb11 f9bc c36e d5bc 4b29 c4bb 6019 abbb
00000020: 4a25 153d 1b0a d33c 561f deb9 2bed 683b
00000030: c8fe a83c 0ec7 ebbc 2b08 73bb 06dc ec3c
00000040: 6877 a9bc d0e5 573c b65c f93c 166a 00bc
00000050: e328 e9bc d0f6 74bc ab39 063a 0001 97ba
00000060: b890 bd3c a076 d3bc 334f febc 8b97 603c
00000070: 8bdd babc 00f5 493c ab8d 85bc 16c8 17bd
00000080: 4834 243d 0024 b43c fbdb e5bc 305b 1fbd
00000090: 3323 e33c a6ab 58bc cefe 0e3d 00d5 063d
000000a0: 9059 fabc ee03 f93c eafd 0e3d 2b85 a3bc
000000b0: 7045 36bc 70a7 6cbc 60f1 cabc 00e2 14ba
000000c0: 4083 0abb 473e 04bd 687f 28bd ab97 e6bc
000000d0: 306d e13c d838 bfbc b69f 39bc 40a3 2abc
000000e0: 40ae 563c 9e86 13bd 364e 353c a07a 15bc
000000f0: 86a2 de3c 9072 aebc 3b11 16bc 8270 2a3d
00000100: bbe0 29bd 66c2 7dbc a6d0 97bc c0f9 193d
00000110: 883a 10bd ae81 fa3c 8039 553b 4bc3 bfbc
00000120: be72 e6bc 60e6 773c 68e8 0bbd a673 433c
00000130: 9870 2a3d ee31 a0bc 56f4 5c3a 23ec 99bc
00000140: ce6b a3bc 2003 99bb 83ac ef3c 4010 723b
00000150: e3ae 133d 3025 02bc 70e5 08bd 1048 a4bc
00000160: 2620 253d d85b fd3c 0082 033a 2cba 153d
00000170: 9046 a8bc cb55 f4bc 488d b13c 432d 03bd
00000180: 5b88 cc3c 88b1 283d 5685 1bb9 701f c3bc
00000190: c069 31bb 9620 783b f64e cb3c 40f4 26bd
000001a0: abfc 673a cb1d fe3b 46f3 17bc fbed 993c
000001b0: 008c aabc 28c0 ebbc 6b0d 0dbb 4be1 9f3b
000001c0: 8b17 d0bc 3c99 25bd c3bb d3bc fb03 fa3c
000001d0: 18ba dfbc fe1b cd3c dc9d 093d eb5e f1bb
000001e0: db4e eebc 5661 e8bb 5ea2 a33c 0303 f13c
000001f0: a07a bfbb 6805 c63c d6c9 eb3b 9703 07bd
00000200: f6dd a2bb fb85 6cbc 1f4b 00bd 80f1 1b3c
00000210: 2b40 c43c 90c8 903c 2e6d fcbc 23a9 1bbd
00000220: c004 afbb 1883 fdbc a0a1 f33b 164e dfbb
00000230: 78fd d23c b032 823c 3b2c 5a3c 4be1 0ebd
00000240: f6f2 babc d270 1abd 105d 15bc 9bb4 693c
00000250: cee6 eebc 00cc e2b9 ab4b 253d ab2e 1dbb
00000260: 5035 fbbc fe2e 1bbd 8bcb 1e3d 56ee cf3a
00000270: ab2e ae39 004b 753a 6b93 c2bc 0cfd 26bd
00000280: 9bc1 11bc 2cba 093d 10c8 12bd 5b76 0abd
00000290: fe38 14bd 368a c53b 4b52 26bc e03b d43b
000002a0: 5628 403a 7b5e 2a3c a6d1 183c 1080 e63c
000002b0: 2b7a 303c de09 823c e8a5 f8bc 5215 1fbd
000002c0: c03a 18bb c833 b53c 28c3 bd3c 0630 b6bc
000002d0: 8bd8 e8bb d023 57bc 9e39 f2bc cb6b 523c
000002e0: 83b1 abbc 9677 95bc 0662 e0bc 00e2 89bb
000002f0: ebb1 733b 36f8 31bc c6e3 cebc 7b06 b03c
00000300: 879e 1bbd d6f7 c13c 263c 953c 40db 703b
00000310: e41d 1ebd 86b6 e33c 80af d7ba 1086 95bc
00000320: e311 ffbc 7641 e03b a0f6 1cbd eb10 cf3c
00000330: 1059 013d eba3 d0bc d645 223b c7c1 0a3d
00000340: 00f0 a13a 7004 e13c f09c 253c 66ed a4bc
00000350: fbbf 4bbc abe0 eebb 73c9 8cbc 56e4 23bd
00000360: 3ba8 50bc 2355 ee3c d686 813b 6b0a 3cbc
00000370: eba4 923b d095 9abc 76c1 ec3c ae63 093d
00000380: cbb7 fabb 7671 2b3c be68 25bd 36be cebb
00000390: ae16 95bc 007b c3ba 46ef c53c 3823 af3c
000003a0: a0d8 d3bb 4029 95bc c714 13bd 2024 f4bb
000003b0: 6b37 a2bb db7d 4cbc ebd8 fa3b 2039 853b
000003c0: aece e93c 2235 1f3d f67d 6dbc 162e 24bc
000003d0: f068 5e3c ae30 bbbc 8cdf 173d 0bbb 9dbb
000003e0: f6c0 2d3c 5b3b c7bc 66d7 113c 2e9a abbc
000003f0: 9e41 263d 2624 31bc c6ee 45bc 8bf0 c33b
-0.029617634 0.0142488135 0.019730583 0.03373465 -0.030403992 -0.026053792 -0.005986368 -0.005221531
0.036412515 0.025761655 -0.00042366487 0.0035541754 0.020629302 -0.02878144 -0.0037083726 0.02891351
-0.02068682 0.01317735 0.030439716 -0.007837793 -0.02846188 -0.014951423 0.00051202875 -0.0011520684
0.023140296 -0.0258134 -0.031043625 0.013708006 -0.022810718 0.012326479 -0.016302904 -0.03705605
0.04008892 0.021989822 -0.028058996 -0.038905323 0.027726745 -0.013224518 0.03491097 0.032917976
-0.030560285 0.030397382 0.03491012 -0.01996096 -0.011124954 -0.014444217 -0.0247733 -0.00056794286
-0.002113536 -0.032285955 -0.04113713 -0.028148493 0.027517885 -0.023342535 -0.011329582 -0.010414898
0.013103068 -0.036017053 0.01106601 -0.009123474 0.027177107 -0.021294862 -0.0091593815 0.041611202
-0.041474085 -0.015488243 -0.018532109 0.037591696 -0.03521207 0.030579414 0.0032535493 -0.023408553
-0.028130885 0.015130609 -0.034157187 0.011929428 0.041611284 -0.019555058 0.0008428743 -0.018789357
-0.019948866 -0.004669562 0.029257065 0.0036935955 0.036055457 -0.0079434365 -0.033421934 -0.020053893
0.040313862 0.030927584 0.0005016625 0.0365545 -0.02054146 -0.029826066 0.021673813 -0.032025587
0.024967363 0.041184932 -0.00014831623 -0.023818702 -0.0027071089 0.003786122 0.024817925 -0.04076028
0.0008849601 0.0077550164 -0.0092743095 0.018790236 -0.02081871 -0.02877815 -0.002152289 0.004879152
-0.025401851 -0.04042934 -0.025846368 0.030519476 -0.027310416 0.025037762 0.033597812 -0.0073660514
-0.029090336 -0.0070916815 0.019974884 0.029420381 -0.0058434755 0.0241725 0.0071956916 -0.032962408
-0.0049703075 -0.01443624 -0.03132164 0.009518027 0.023956379 0.01767376 -0.03081378 -0.0380031
-0.0053411424 -0.0309463 0.0074350387 -0.0068147285 0.025755629 0.01589331 0.013316209 -0.034882825
-0.02282093 -0.03770525 -0.009116426 0.014264251 -0.02916279 -0.0004325807 0.040355366 -0.0023984115
-0.03066507 -0.037886612 0.038768332 0.0015863876 0.00033222637 0.0009357184 -0.023751935 -0.040768668
-0.008896257 0.033624813 -0.035835326 -0.03380428 -0.036187164 0.006028439 -0.010151456 0.006476864
0.0007330229 0.010398502 0.009327328 0.028137237 0.010771315 0.015873846 -0.030352548 -0.038838692
-0.0023228377 0.022119418 0.023164347 -0.022239696 -0.007105892 -0.013131097 -0.02956849 0.012843083
-0.020958668 -0.0182455 -0.027390491 -0.0042078495 0.0037184905 -0.010862401 -0.025255095 0.021487465
-0.03799298 0.023677748 0.018217158 0.0036751777 -0.038602725 0.027796995 -0.0016455501 -0.018252403
-0.031136459 0.006843741 -0.038321137 0.025276622 0.031579077 -0.025468787 0.0024760864 0.033876207
0.0012354851 0.027467936 0.010108218 -0.020132732 -0.012435908 -0.007289966 -0.017185902 -0.04001268
-0.012735422 0.02909333 0.0039528413 -0.011477093 0.004475226 -0.018870264 0.028900843 0.033542328
-0.0076513044 0.010464063 -0.040383093 -0.006309296 -0.018199291 -0.0014913976 0.024161946 0.021379098
-0.0064650327 -0.018208146 -0.035908487 -0.0074505955 -0.004950454 -0.012481178 0.007655253 0.0040656477
0.028540935 0.03886903 -0.014495363 -0.010020753 0.013574824 -0.02285036 0.037078425 -0.004813557
0.0106050875 -0.024320295 0.008901453 -0.020947542 0.04058992 -0.010811841 -0.012080854 0.0059796027

bias f4 [64]
00000000: 9f6b 1ebd 0033 dfba b752 24bd 3007 bb3c
00000010: e69f c83c d6ef a73c 1616 e3bb b431 263d
00000020: fb1d 363c 93b3 91bc 6b62 823c 1608 efbb
00000030: bb8b 1fbc d6b2 d4bb 36a1 953c ae3b 0d3d
00000040: d652 cf3a 8b07 99bb 3b45 92bc abba 783a
00000050: 60a6 e73b fbeb 64bc e8e9 bcbc 40d3 613b
00000060: 7bc6 8ebc 00af 17bc 6b32 083b 00e5 143a
00000070: ab73 d33a 26f7 35bc 80cc 2b3b 708d ab3c
00000080: 1619 263b de8b 9dbc 20b5 b5bb 36bc f53b
00000090: db04 1abd ebfd 563b ba65 00bd 849f 27bd
000000a0: 7e17 8f3c 3ebd 20bd 8099 3c3c b480 0cbd
000000b0: e62c 913c 7040 883c 2e93 a3bc 4b6f 15bc
000000c0: a32d dabc 23be c4bc 0311 1ebd cbc3 453c
000000d0: 4b4c d93c 5624 b1bc aec5 083d 78e2 babc
000000e0: 46f0 00bd c872 cebc c0b8 9f3b 5651 db3c
000000f0: f6bd fd3b 50ce 233d d669 adbb 631e d53c
-0.038676854 -0.0017028749 -0.040117946 0.022830576 0.024490308 0.020500105 -0.006930123 0.040574744
0.011115546 -0.017785823 0.01591607 -0.007294665 -0.009737904 -0.0064910455 0.018265348 0.034480743
0.0015817534 -0.0046700886 -0.017855277 0.0009488265 0.007069394 -0.013972278 -0.023060754 0.003445819
-0.017428627 -0.009258032 0.0020782005 0.00056798756 0.0016132494 -0.011106288 0.002621442 0.020941466
0.0025344542 -0.019231733 -0.0055452734 0.007499243 -0.037602287 0.0032805155 -0.031347014 -0.04092361
0.017467257 -0.039242975 0.011511207 -0.03430243 0.017721605 0.016632289 -0.019967642 -0.009120773
-0.02663309 -0.024016446 -0.038590442 0.012070606 0.026525637 -0.021623772 0.033391647 -0.022813067
-0.031479143 -0.025201216 0.004874319 0.026772182 0.0077435924 0.039991677 -0.0052921576 0.026015466

weight f4 [2, 64, 1, 1]
00000000: 14e4 01bd 802f 8b3d 0029 b93c da15 fe3d
00000010: 088b af3d fc78 bd3d b2a0 a63d 3403 8c3d
00000020: a070 503d 6862 f83d 6a13 91bd 4067 7dbc
00000030: 00f8 de3d ea19 ee3d 9038 68bd ded6 953d
00000040: d891 d13d d2eb 853d 701a 44bc 6296 803d
00000050: 700b 563d 486a ba3c a22a 963d 5a19 84bd
00000060: f028 6d3d f0fb 88bc 7048 b4bc e06c ae3b
00000070: 7a49 c4bd 304d 533d 20fc 11bc 8c3b 3d3d
00000080: 90f1 cdbc 0001 013d da9a a1bd a04a edbd
00000090: a8ec ef3d b069 dd3d 9463 bcbd 7046 b83c
000000a0: f0b7 51bc 9829 c53d a60d ce3d 6035 febb
000000b0: b48b 96bd a0b5 56bc 4cd1 20bd 24ef 013d
000000c0: f4c6 6c3d 208e 553d d800 693d 6070 05bd
000000d0: be5d cf3d d077 573d 12c5 91bd c02b 20bb
000000e0: 902a 39bc 701f f73d d0cc 8a3d 4429 3dbd
000000f0: 2856 8d3d becb e8bd 9cd4 ccbd 886d 853d
00000100: e6c2 923d a426 313d 7e9a fbbd e4d8 4abd
00000110: 4ca5 aa3d 7862 e8bd 2059 dbbb 902c 913c
00000120: 1027 64bd 9e06 e8bd b282 ff3d 86d7 b73d
00000130: 042a cbbd 40a3 63bc f2f3 833d f4d9 93bd
00000140: 12fb 83bd 4ccc e63d 7063 033c 480b 41bd
00000150: 086c fe3d c603 aebd acaa e9bd bcfa 7a3d
00000160: 80a9 e13b aca8 143d 5267 a23d e09f ac3d
00000170: 5c32 ba3d f268 9abd 90b1 223c 1646 fcbd
00000180: 5c2c 2bbd 6e54 b4bd 849e f3bd 60b0 80bc
00000190: 7030 a03c 104f 50bc b4a4 63bd ccdd 17bd
000001a0: 6613 bd3d 5821 8abc d8d2 d9bd e604 983d
000001b0: 20f7 8d3d 80e9 28bd 4e1c d8bd 421c 8e3d
000001c0: d8d8 e8bc 749f e03d 8471 d23d 7c0d 77bd
000001d0: fed4 9c3d c84f dabc 30ea c73d 80da a1bb
000001e0: acbc 87bd 702e 183c 6eee f63d 5e4f 90bd
000001f0: 3831 e4bd 9c8a a83d 564c ef3d ecaa a9bd
-0.031711653 0.06796169 0.022602558 0.124065116 0.0857144 0.092515916 0.08136119 0.068365484
0.050888658 0.121281445 -0.07083781 -0.015466511 0.10887146 0.116260365 -0.056694567 0.07316373
0.102328956 0.0653912 -0.011969194 0.06278683 0.052257 0.022755757 0.0733235 -0.06450148
0.05790037 -0.016721696 -0.022007197 0.0053230375 -0.09584327 0.051587284 -0.008910209 0.046199366
-0.0251396 0.031495094 -0.07890864 -0.11586499 0.117150605 0.10811174 -0.091986805 0.022494525
-0.012800202 0.09627074 0.10061197 -0.0077578276 -0.07350865 -0.013104826 -0.0392621 0.031722203
0.057806924 0.052137494 0.05688557 -0.032577872 0.10125302 0.052604496 -0.07117666 -0.002444014
-0.011301652 0.12066543 0.06777346 -0.046181932 0.069011986 -0.11366986 -0.100014895 0.06515032
0.0716608 0.04324974 -0.122853264 -0.04952325 0.08332309 -0.113469064 -0.006693974 0.017721444
-0.055701315 -0.11329387 0.124761 0.08976655 -0.09920123 -0.013893902 0.06443013 -0.07219306
-0.06444372 0.11269435 0.008019313 -0.0471299 0.12422949 -0.084968135 -0.11409506 0.061274275
0.006886661 0.03629367 0.07929863 0.08428931 0.090916365 -0.07539548 0.0099300295 -0.12318055
-0.04179035 -0.08805166 -0.11895469 -0.015709102 0.019554347 -0.0127141625 -0.055576995 -0.037076756
0.092322156 -0.016861603 -0.106359184 0.07422809 0.06931901 -0.041238308 -0.10552274 0.069389835
-0.028423712 0.10967913 0.10275558 -0.060315594 0.076578125 -0.02664937 0.097614646 -0.0049393773
-0.06627783 0.009288415 0.120571956 -0.07046388 -0.111422 0.08229563 0.11684482 -0.08284554

bias f4 [2]
00000000: b04d eabc 483c 8cbc
-0.028601497 -0.017118588

weight f4 [64, 128]
00000000: 8979 a4bc 1b3f 18bc 9058 85bd e685 413d
00000010: cc70 e53b 1aba 5dbd ff74 abbd c879 c5bc
00000020: 62f6 a43d 82c9 a1bd 65ca a3bd de2d 1d3d
00000030: 9271 1d3d 75c6 b1bd 3116 2b3a 87b8 a93b
00000040: 6942 513b 7788 84bc 1e29 6dbd 5e11 ca3c
00000050: 2d00 9b3d 3b20 76bd 4c68 35bc 6fdd 97bd
00000060: 9d8d e03c b31d f03c 6b45 a93d 8c67 5b3d
00000070: 08df debb fed2 f2bb 62fa f03c 1e71 ab3d
00000080: 941e 2d3d cdf4 44bd 463d 8bbc 4114 e53b
00000090: f20c d7bb a6d5 883d f8ba c53c 3a37 6fbd
000000a0: 03e4 8a3d 64ac 89bc ea1c a23d 1479 a7bd
000000b0: a83b 103d 6760 43bc c2de d33c 56d1 bbbc
000000c0: 1010 953d eadb 583d 4c42 b3bd 30ac b8bb
000000d0: 942c 1abd c404 ed3c 540c ecbc 70f3 f5bb
000000e0: c3fa 98bd 52ef 293d 04b7 8f3d d554 8e3d
000000f0: 83b9 2b3d 4de6 6bbd 00a7 82bd 2b42 2dbd
00000100: e65e aa3d d105 8abd 00b8 a0bd 159a 703c
00000110: ca62 043d 09d3 623d 8ae2 a5bd 61de 4b3d
00000120: 196f 4dbd 7f7b 99bd d0f2 6ebd cff3 523d
00000130: c5f2 f6bc 7d71 8b3d b2e2 93bd e3de 3a3d
00000140: c6e4 a4bc 2860 cc3c de75 8fbd 1496 88bc
00000150: 9216 2dbd 605a 8a3d 5593 723d 21a7 af3c
00000160: 19ee 54bd b4f5 643d 6659 cf3c e091 953c
00000170: 874b 09bd 1b9c c83b 590e aabd f7d7 6c3d
00000180: d1d6 b3bd 37b4 26bd 680d c33a 5129 be3c
00000190: d9c4 0c3d 5c44 7abd b0e6 9abd 7b2a eebc
000001a0: 4349 8cbd 657e b43d 0048 1c3d d0e4 66bd
000001b0: b3fb b23d 003e 3e3d c3bc abbc f94f 08bd
000001c0: 919c 293d 1970 b23d a0b1 963a a9ee 22bd
000001d0: be23 9fbd 1b7b 973d 6120 f3bc bc1f 9bbb
000001e0: fa4e 97bc 2e29 52bd 0fd5 6c3c 29f3 213d
000001f0: 7d12 a33d f445 b33d 4405 b43c bc14 ae3d
00000200: 06bf 0cbd 6c24 a3bc 2e2b 24bd d5fc b13d
00000210: 3318 9fbc dc01 83bd e65c cebc ce70 18bd
00000220: 00e6 7a3c 276a 533d d1f7 2bbd 3f6f 9c3d
00000230: 8178 0b3d f502 913d ad93 a53d 4ce1 a9bc
00000240: 7548 823a 7a27 8e3d d7c3 e03b 16e5 0a3c
00000250: bc5c ed3c f9f3 37bd 1e35 a4bd d633 7f3d
00000260: f40d 8a3d 973e 743d e94a a03c c54b a33d
00000270: 424a dd3c e17b ac3c 3bf1 ae3d 451c 963d
00000280: 6b02 813c b562 483d c322 b2bd 7c08 6c3d
00000290: e8ce 953d e44a 433d 134f 8abd d8f7 7cbc
000002a0: c080 803d 467a 6e3c 90bf 563d ecf8 e83b
000002b0: 5f97 a73c fb87 4fbd 7283 8f3d f7e8 8f3d
000002c0: 1f5c 683b 4749 a2bd 924b 9cbc 7aad aabc
000002d0: 82aa 2b3b 78c2 5cbd 9085 a73d e619 fc3b
000002e0: 611c 7bbd 54e1 08bd bd1c 503d 9b79 8bbd
000002f0: a6d9 d43c 3007 a73b 1b1e 9a3d d7a1 0bbd
00000300: 016d 313a eaa5 b2bd 4bd8 923c 9e71 91bd
00000310: 5f2f 92bd 3ff1 a03d 7cc3 91bc 5754 e0bc
00000320: 169c 3f3c c152 dfbc 8bdc 153d 4542 763d
00000330: 246f 7e3a 64f7 54bc 4062 a3bd c82d 903d
00000340: c472 c7b9 a809 4ebc e0ce 083d 7dd1 10bd
00000350: 883d ccbc dbae 39bc bbbc d7bc c670 223c
00000360: 768e a8bd dc76 11bd ff90 a23d 1e91 a5bd
00000370: c9d4 413d 9518 59bd 31af c53c 18b5 513d
00000380: 1a68 243c e9f5 853d 12ff 41bd 6d8a e13c
00000390: d417 95bd 946f 8abd 9dbe c13c c582 0fbd
000003a0: 791c 833d e69a 9d3d 3325 483d 8bdc 2e3c
000003b0: 5674 a6bd cb19 b4bc 792e 41bc 25a8 92bd
000003c0: 04c6 473d 86f7 9c3d 15e5 d63b fe0c 48bd
000003d0: 449d acbc 6fa7 7e3d 8e0c 523c de4f 9b3d
000003e0: a372 423c 480a 103d cca9 71bd 7db5 0a3c
000003f0: f22e 3dbd 7b54 3dbd 193b ad3d c9df 95bd
-0.020077484 -0.009292389 -0.065110326 0.047246836 0.007001972 -0.05413256 -0.083719246 -0.024105921
0.08054806 -0.07899763 -0.07997588 0.03837382 0.038438387 -0.08680431 0.0006526439 0.005179468
0.0031930453 -0.016178353 -0.05790054 0.024666484 0.07568393 -0.06008933 -0.01107223 -0.07415282
0.027411276 0.029311037 0.082651936 0.053565547 -0.0068014897 -0.007410406 0.029416267 0.08371185
0.04226549 -0.048085023 -0.01699699 0.00699094 -0.0065628225 0.06681375 0.024137005 -0.058402278
0.06781771 -0.016805835 0.07915671 -0.08177391 0.035213143 -0.01192484 0.025863055 -0.022926968
0.07278454 0.0529441 -0.087528795 -0.0056357607 -0.03764017 0.028932936 -0.028814472 -0.0075058267
-0.07469704 0.041488 0.07017329 0.06949774 0.041924965 -0.05759268 -0.06379509 -0.04229943
0.08318882 -0.06739391 -0.07847595 0.0146851735 0.032320775 0.05537704 -0.080998495 0.049772624
-0.05015478 -0.07494258 -0.058337033 0.051502045 -0.030145058 0.068087555 -0.07220973 0.045622718
-0.020128619 0.024948195 -0.07004903 -0.016673125 -0.042257853 0.06755519 0.059222538 0.021441998
-0.05198488 0.055898383 0.025311183 0.018258035 -0.033519294 0.006122125 -0.08303518 0.057823148
-0.08781207 -0.04069921 0.0014881315 0.02321306 0.034367416 -0.06110035 -0.075635314 -0.02907299
-0.06849911 0.0881317 0.038154602 -0.056370556 0.08739414 0.046445847 -0.020964032 -0.033279393
0.04140908 0.08712787 0.0011497028 -0.039778385 -0.07770489 0.073965274 -0.029678525 -0.0047340076
-0.018470276 -0.051308803 0.014455094 0.039538536 0.07962511 0.08753577 0.021975167 0.085000485
-0.03436186 -0.019914828 -0.04008024 0.08690802 -0.019420719 -0.06396839 -0.025190782 -0.037216954
0.015313625 0.051614907 -0.041984383 0.07638406 0.03405047 0.07080642 0.080848075 -0.020737313
0.0009939807 0.06941123 0.0068592834 0.00847747 0.028974883 -0.044910405 -0.08017944 0.062305294
0.067409426 0.059630003 0.01956697 0.07973436 0.027012948 0.021055164 0.08542105 0.07329611
0.015748223 0.04892226 -0.086980365 0.05762528 0.07314855 0.047678843 -0.067533635 -0.01543995
0.06274557 0.014555519 0.052428782 0.007109752 0.020457922 -0.05066679 0.07007493 0.070268564
0.00354553 -0.07924133 -0.019079003 -0.020834673 0.002619416 -0.053896397 0.08179772 0.007693517
-0.06130636 -0.033418015 0.050808657 -0.06810304 0.02598269 0.0050972924 0.075252734 -0.03408989
0.0006768257 -0.08723052 0.017925402 -0.07101749 -0.071379416 0.07858514 -0.01779341 -0.027383966
0.011694929 -0.02726114 0.03658728 0.060121793 0.00097058923 -0.012998436 -0.07977724 0.07039982
-0.00038041745 -0.012575544 0.033400416 -0.035356034 -0.024931684 -0.011333193 -0.02633511 0.009914583
-0.08230297 -0.035513744 0.07937812 -0.080843195 0.04732207 -0.05300196 0.02413139 0.051198095
0.010034585 0.06541044 -0.047362395 0.027531827 -0.072799355 -0.06759563 0.023650462 -0.03503682
0.06401915 0.0769556 0.0488636 0.010672699 -0.08127658 -0.021984955 -0.011790865 -0.07160977
0.048772827 0.07664399 0.0065580704 -0.048840515 -0.021071084 0.062171396 0.012820376 0.07583593
0.011868152 0.035166055 -0.05899982 0.008466122 -0.04618735 -0.046223145 0.084585376 -0.07318074

bias f4 [64]
00000000: 3e8a c5bc c6e5 01bc e0f2 a53d ea09 84bb
00000010: c13f 8a3b 9f75 863d fb1f 733c c46a 9fbd
00000020: bf00 51bd 6487 d63b a9af 0d3c 071d a63c
00000030: ad5a 9e3c 060a 803d 8832 713d 99f5 28bd
00000040: c188 a23d e7b6 123d 2691 afbd 7a0b 2fba
00000050: 3855 2ebc a497 72bd 9cbd 12bd 2e7b dd3c
00000060: 770e 653c 48af 9a3d 9d8a 1a3d fbbb 8bbd
00000070: 440e 133d 24dc a03d 8a2c 50bd 9c8f 5f3d
00000080: ccf1 483d e551 b0bb ad03 b1bd 9e12 09bd
00000090: 5cf4 c03c 8aa4 c9bc 2161 50bd 463b 83bd
000000a0: 1e10 963c d4e8 bbba 9689 483d 4b70 4fbd
000000b0: 522b 5d3d c8dc 2bbd cc30 abbd 5ba6 353d
000000c0: a6c1 76bc 1f76 2a3d d621 8cbd 976a 3abd
000000d0: c8a2 b2bd 8a92 803d 147e 9dbd 1d75 7f3d
000000e0: 2908 a43d df92 503b f7d6 8b3d 2823 943d
000000f0: 948b 45bd a7ea 52bd 66ca a23d c0e4 00bd
-0.02411377 -0.007928317 0.08102965 -0.004029502 0.004219026 0.06565403 0.014839168 -0.07784036
-0.051026102 0.0065469015 0.008647838 0.020277513 0.019330347 0.06251912 0.05888608 -0.041249845
0.0793624 0.03581896 -0.08572607 -0.00066774304 -0.010640435 -0.059226647 -0.035825357 0.027036276
0.0139804995 0.075529635 0.03772985 -0.06822964 0.035902277 0.078544885 -0.050823726 0.054580316
0.04905872 -0.0053808563 -0.08643279 -0.03346502 0.02355402 -0.024614591 -0.05087388 -0.0640779
0.018318232 -0.0014336356 0.048959337 -0.0506442 0.05399639 -0.0419586 -0.08358917 0.044348102
-0.015060818 0.041616555 -0.06842391 -0.04551181 -0.08722454 0.0627795 -0.07690063 0.062367547
0.08009369 0.0031825823 0.06828111 0.07233268 -0.048228815 -0.051493313 0.07948761 -0.031468153

weight f4 [1, 64, 1, 1]
00000000: 4cc7 2abd 4429 b33d e0c2 60bc ccd8 c53d
00000010: 0084 7bb9 2c7d a73d 0888 d73c 1825 173d
00000020: f85b 7c3d 220d df3d d838 d93c 6040 5d3d
00000030: 3864 76bd 407a 813d 789c 65bd 0634 a83d
00000040: 345f 69bd d4a9 a5bd 68a7 80bc 30ed a83c
00000050: f23a d33d 3ec3 bc3d c02a babc 80da 34bc
00000060: 2a78 dabd f6b4 81bd 1420 cfbd 2473 ec3d
00000070: 30fb 36bc 40c2 eb3d 741f ddbd e040 31bc
00000080: 00f7 093c 88fa b3bc c646 a5bd 3091 333d
00000090: fc7c 053d 2001 debc 06ea e73d 706e f7bd
000000a0: c4ef 523d a0df 3cbd 28e1 46bd c0b1 163c
000000b0: 788f 973c c479 80bd 203f 8bbb 0097 e0bd
000000c0: 2485 1dbd fc55 3abd 269b cf3d a0b6 853c
000000d0: 4036 0a3d fef8 a83d fcb6 57bd a4ab 833d
000000e0: 9c85 d8bd 9085 90bd 2ccd bbbd e8fb eabc
000000f0: bcf5 953d 70ce cc3d 986c 963d 64b1 6abd
-0.04169397 0.08748105 -0.013718337 0.09660491 -0.00023986399 0.081781715 0.026309982 0.03690061
0.061611146 0.10891177 0.026516363 0.05401647 -0.06015417 0.063221455 -0.056057423 0.08213048
-0.05697556 -0.08089033 -0.015704826 0.020620912 0.10313977 0.09216927 -0.022725463 -0.011038423
-0.10667451 -0.06333344 -0.1011354 0.11545399 -0.011168286 0.115116596 -0.10797015 -0.01081869
0.008420706 -0.021970049 -0.080701396 0.043839633 0.032589898 -0.027100146 0.11323933 -0.12081611
0.05149819 -0.046111703 -0.04855457 0.009197652 0.018501028 -0.06273225 -0.0042494684 -0.10966301
-0.03845705 -0.045492157 0.10137014 0.016322434 0.033743143 0.082506165 -0.052664742 0.06429222
-0.10572359 -0.07056725 -0.09169993 -0.028684571 0.07322261 0.10000312 0.07344931 -0.05729808

weight f4 [64, 64]
00000000: 3ce9 bfbd 8476 913d e03c 423c 4cd9 04bd
00000010: fca2 5a3d a034 a3bc 8042 2cbb 58c6 4ebd
00000020: 6a07 d13d a890 8bbd e8d2 fe3d 24a4 fd3d
00000030: 584a cabc 78ad 723d 00fa f2bb ca60 f2bd
00000040: 5cc9 30bd 7644 e0bd b8bd a63c 0034 ffbb
00000050: 6607 e73d 941c af3d c8a9 8b3c b069 43bd
00000060: 9c9e a13d 2c9c 21bd dec8 d33d e49b 023d
00000070: ae75 f0bd c0c1 9fbb ccf4 233d f8ca 37bd
00000080: 9a42 97bd 1c73 fc3d 7c8e 853d 8000 643c
00000090: 801f 91bd d89b bcbc 30ca 30bd 10b3 e93c
000000a0: c200 c2bd 3221 a3bd 56c4 fc3d 34f7 1c3d
000000b0: 24c6 a6bd d284 ff3d cc0e 523d 20d5 9fbb
000000c0: 5079 9b3c 803d fb3c 501a 0bbd c091 473d
000000d0: d224 a13d e0a3 ebbc f6e5 a9bd 18da bebd
000000e0: ac16 603d 981b f43d e876 2cbd c8df a2bc
000000f0: 20d5 f93d c09a ef3b a0a6 9abc 0acc d13d
00000100: 160d e83d b0cf aebc ec3a 223d 08da 923d
00000110: 789f d23c c0fd 7fbc 90c5 c5bc 008e 6cbc
00000120: 167c 88bd f03d 2ebd 30ca 54bd 54cc d2bd
00000130: 28aa 0cbd b866 5bbd 404c 903b 2c45 4cbd
00000140: 2ce0 3dbd 94cc c93d 60d4 89bd 5484 893d
00000150: 3a69 a2bd 9eb7 f13d d80a c2bd 2c91 8e3d
00000160: 2cb0 de3d 5605 e3bd e068 42bd 3249 9cbd
00000170: 78f0 35bd 9c2e 63bd 02b8 b3bd 1c3f 3dbd
00000180: 1cd2 27bd fe24 a03d 20eb d33b aea0 9b3d
00000190: 300a dc3c e0b3 bdbd 003e fdbd ca12 84bd
000001a0: 3a22 f53d 20e1 9f3c 8685 e5bd 40ce cf3b
000001b0: c4de 35bd a02e 433c 1061 503d 0e28 f4bd
000001c0: ee96 9bbd 2aef ecbd d8ad ed3d dc09 d4bd
000001d0: 72b0 80bd 241e b93d b013 893c da03 9e3d
000001e0: 0085 a13b 14cb 8abd a696 dbbd 546e b1bd
000001f0: 8033 71bc d8a6 eebc 5073 a43c 52e1 c2bd
00000200: c0d5 753b 8cb8 443d 1cb9 b5bd 9e62 a43d
00000210: a4f2 00bd ae17 fcbd 9857 4e3d d040 4abd
00000220: e6f1 ae3d 4003 06bd b47f e9bd ec8a 853d
00000230: 869b aabd 1a5b fe3d 9eec 8a3d 48fb 56bd
00000240: 00aa 763a c6ec 8abd d09d 873d 8076 de3d
00000250: 4492 6e3d c429 fc3d ea98 f93d 08dc 72bd
00000260: bc6f 60bd b858 68bd 648c 823d 6044 8cbd
00000270: 081c 393d 9a88 fdbd aab5 efbd 507c 2e3c
00000280: 3e4b cd3d 3454 21bd 74bb 4cbd e2e2 e5bd
00000290: d00c d73c 34d8 7fbd cc25 773d ec82 313d
000002a0: fa1f f83d e89c 25bd ee8b af3d 6053 733d
000002b0: e89b f1bc 209f d03d b236 e63d 4626 f83d
000002c0: 066d 973d 6272 b9bd 8c22 dbbd ccc8 02bd
000002d0: 60e2 b63b 0288 91bd b8af 003d 90cd afbc
000002e0: 208e 663c b823 3dbd 1417 ba3d b08c 54bc
000002f0: 8429 2d3d a6b7 be3d 10c1 a3bd 40f9 a2bb
00000300: a070 cfbd a6ae b73d 54ff cd3d 84b2 4a3d
00000310: 7e23 b63d 48e6 d8bd aef8 97bd 2007 a93d
00000320: 7411 3bbd eac5 eabd 8c3d 303d 6c93 fbbd
00000330: 30b3 cabd 1054 ca3d 4cbe c83d 96c9 9bbd
00000340: 9c4c 73bd 2053 cbbb 9cd0 c03d 8052 35bb
00000350: cc81 903d 5435 f23d 9e20 90bd a4fd 58bd
00000360: 64a0 333d 48f7 e23d a0ec e1bd ea95 9d3d
00000370: 544d af3d 7047 6b3d b0d7 7e3c 1c16 b33d
00000380: 00c7 513c 60cf fa3b 2069 9f3d 42b3 b83d
00000390: a07e abbd 90ce 17bd 4c80 09bd 400e 193c
000003a0: eaee ff3d 507d 6e3c c879 9c3c f4ee f13d
000003b0: 3074 2dbc 0038 1abc c6d2 92bd be70 e7bd
000003c0: fc53 20bd b048 9a3d 466b b2bd 3844 7bbd
000003d0: 0c18 afbd ec56 083d d8ce c13d ecc7 f9bd
000003e0: 72a6 91bd d8fe f33d 5443 373d b2c6 883d
000003f0: 0015 2a3c f07a e83d 5c87 1b3d bca4 fe3d
-0.09370658 0.07102683 0.011855334 -0.032433793 0.05337809 -0.019922554 -0.0026284754 -0.050482124
0.10206492 -0.068147 0.12442571 0.12384823 -0.024693653 0.059247464 -0.007415056 -0.11834867
-0.04316078 -0.10950558 0.020354137 -0.0077881813 0.11280708 0.08550373 0.017048731 -0.047708213
0.078915805 -0.039455578 0.10341047 0.03188695 -0.117411956 -0.0048753917 0.04002838 -0.0448713
-0.0738575 0.12326643 0.06521317 0.013916135 -0.07086086 -0.02302353 -0.04316157 0.028527766
-0.09472801 -0.07965316 0.123421356 0.03832169 -0.08143261 0.12476505 0.051283643 -0.0048777014
0.018978745 0.030668974 -0.03396064 0.048722982 0.07868351 -0.028764665 -0.08295815 -0.09318942
0.05470912 0.119193256 -0.042105585 -0.019882098 0.121988535 0.007312149 -0.018878281 0.102439955
0.11330621 -0.021339267 0.039606974 0.071704924 0.025710806 -0.015624464 -0.024142057 -0.014438152
-0.066642925 -0.042539537 -0.051950634 -0.10292879 -0.03434196 -0.053564757 0.004403621 -0.049870655
-0.046356365 0.09853473 -0.067299604 0.06714693 -0.079302266 0.118026 -0.094747245 0.06961283
0.10873446 -0.11085002 -0.047463298 -0.076311484 -0.044418782 -0.055464372 -0.08775331 -0.046202764
-0.04097186 0.07819556 0.006467238 0.075990066 0.026860327 -0.09262824 -0.12365341 -0.06448896
0.11969419 0.019516528 -0.11207108 0.0063417256 -0.0444019 0.011912972 0.050873816 -0.11921702
-0.07597147 -0.115690544 0.11605424 -0.10353443 -0.06283654 0.09038952 0.01673302 0.077155784
0.004929185 -0.06777015 -0.10722093 -0.086636215 -0.014721751 -0.029132292 0.020074517 -0.09515633
0.0037511438 0.04802756 -0.088731974 0.08026622 -0.0314814 -0.12309204 0.050376505 -0.049378216
0.08542232 -0.032717943 -0.114013106 0.06520638 -0.08330445 0.1241972 0.067834124 -0.052485734
0.0009409487 -0.06783442 0.06621897 0.10862446 0.05824496 0.12312654 0.12187369 -0.05929187
-0.05479406 -0.056725234 0.06374434 -0.06848979 0.04519275 -0.1237957 -0.117045715 0.010649756
0.10024117 -0.039386943 -0.049983457 -0.11224915 0.026251227 -0.062462047 0.06033878 0.043337747
0.12115474 -0.04043284 0.08571611 0.059405684 -0.029493287 0.10186601 0.11240901 0.12116675
0.073938414 -0.0905502 -0.10699949 -0.031929776 0.005581185 -0.071060196 0.03141758 -0.021460325
0.014071971 -0.046176642 0.09086433 -0.012972996 0.04227592 0.09312372 -0.07995808 -0.0049735606
-0.101289034 0.089688584 0.100584656 0.049486652 0.08893488 -0.10590798 -0.07420479 0.08253312
-0.04567094 -0.1146353 0.043027446 -0.12283978 -0.098974586 0.09879315 0.09801921 -0.07606809
-0.059399232 -0.0062049776 0.09414789 -0.0027667582 0.07056007 0.11826578 -0.07037471 -0.052976266
0.043854132 0.110823214 -0.11031461 0.076946095 0.08559671 0.057441175 0.015554354 0.087444514
0.012803793 0.0076541156 0.07783723 0.09018566 -0.08373761 -0.037062228 -0.03356962 0.009341776
0.12496741 0.014556244 0.019101039 0.11813155 -0.010586783 -0.0094127655 -0.07169108 -0.11300801
-0.039142594 0.07533395 -0.08711867 -0.061344355 -0.085495085 0.03328602 0.094632804 -0.12196335
-0.07111825 0.11913842 0.044741943 0.06678523 0.010380983 0.113515735 0.037970886 0.12433764

bias f4 [64]
00000000: 8c24 83bd b6fd d1bd f06c 3ebd 3c0f f03d
00000010: 400f 473d 8ae5 bfbd f80d e2bd 88d7 9fbc
00000020: 1042 6bbc 4248 86bd 0094 62ba 8ee9 ff3d
00000030: 8210 e63d b458 db3d 6062 e9bd e04c 173c
00000040: b892 d13c a806 1b3d 82b6 91bd f8f6 46bd
00000050: 806f 5bbd a81a 283d a6a5 f93d aac7 803d
00000060: e0da f6bb fc2d c5bd 00ee d4ba 68ab 90bc
00000070: 1002 403c 34b4 873d 8821 ac3d 8a1a b7bd
00000080: 281c e3bd a483 25bd 143c 06bd 04c0 093d
00000090: e6b5 d83d f837 b3bc 10f0 533d 009a 343d
000000a0: fc3c b7bd b6c9 91bd 9808 003d 6e6d 9f3d
000000b0: f06c 31bd 28b6 cdbc d61e b53d 6469 f73d
000000c0: 9c67 70bd d2a8 aabd 00b0 c93d 60aa 963d
000000d0: 0066 973a 38ab f03d 6a63 993d 54e9 c53d
000000e0: 98ad a2bc c4a1 e6bd 305b a63d 0876 e9bc
000000f0: 40b7 57bc c670 d33d 38a5 22bd 848e 413d
-0.06403455 -0.1025347 -0.04649061 0.11721656 0.048598528 -0.09369953 -0.110378206 -0.019511953
-0.014359012 -0.06556751 -0.00086432695 0.12495719 0.11233617 0.10710278 -0.11395717 0.009234637
0.025582656 0.037848145 -0.07114889 -0.04857537 -0.05357313 0.041041046 0.12189798 0.06288083
-0.007533416 -0.096279114 -0.0016245246 -0.017659858 0.011719242 0.06626168 0.08404833 -0.08940609
-0.11089355 -0.040408745 -0.03277214 0.033630386 0.105815694 -0.021877274 0.051742613 0.04409218
-0.08947179 -0.071185514 0.031258196 0.07784544 -0.04331678 -0.025111273 0.08843772 0.120806485
-0.05869256 -0.08332981 0.098480225 0.07356715 0.0011550784 0.117514074 0.07489665 0.096636444
-0.019858167 -0.11261323 0.081228614 -0.028498664 -0.013166249 0.10324244 -0.039708346 0.047255054

weight f4 [1, 64]
00000000: c843 89bc be0d b33d f465 dfbd dcfe e8bd
00000010: 60c1 8cbd b890 f1bd aa42 8b3d 3430 503d
00000020: a83c 9c3d 2cec c33d 608f 9ebb 6877 b83c
00000030: 70d0 88bd a808 94bc 948f d6bd 6cc4 53bd
00000040: a0f7 bc3b 5819 f73d dab7 843d 046a 4bbd
00000050: 7a68 b2bd 68d7 31bd 7602 8c3d bc28 7d3d
00000060: 306e dfbc 686b ec3c c02c 68bb ca5c f5bd
00000070: 783d e83c e871 9e3c 589e 81bd acba c0bd
00000080: 64ec 5ebd 7841 80bc 90a9 6cbd b051 323c
00000090: 902b 59bd c001 debc 0006 583c e8e4 303d
000000a0: 3652 a5bd bc72 34bd 4c24 27bd fa2a f53d
000000b0: 7ed4 a03d e0fd f1bb d4c2 81bd 4663 933d
000000c0: c475 163d 94e4 e23d 562e dfbd dc78 b43d
000000d0: bc98 67bd a09b dd3d d2a1 823d a40a 583d
000000e0: 40b3 30bc 0c43 033d 3814 853c 82ce b7bd
000000f0: e0fa 593d 6c24 84bd 30a2 54bc d8ad cb3c
-0.016755953 0.087428555 -0.10908118 -0.113767356 -0.06872821 -0.11795181 0.067998245 0.05082722
0.07628757 0.095665306 -0.004838869 0.022517875 -0.06680381 -0.018070534 -0.10476604 -0.051700994
0.005766824 0.12065381 0.064803794 -0.04966165 -0.087113336 -0.043418318 0.06836407 0.061806425
-0.027274221 0.028859809 -0.0035427064 -0.11980589 0.028349623 0.019341424 -0.0632903 -0.09410605
-0.05442466 -0.015656218 -0.057778895 0.010883734 -0.05302006 -0.027100444 0.013185024 0.043187052
-0.08072321 -0.04405473 -0.0408061 0.11971088 0.0785303 -0.0073850006 -0.06335989 0.07196669
0.036733404 0.11078754 -0.1089751 0.088121146 -0.056542143 0.10820699 0.06378521 0.052744523
-0.010784924 0.032046363 0.016244993 -0.08974935 0.05321777 -0.064522594 -0.012978122 0.024863169
